data/pretrained_ae.pth (torch_old, 228843 bytes, 13 tensors)

conv1.weight f4 [64, 1, 3, 3]
00000000: 483c 5d3e 6c48 563e 15a2 39be 6b06 a03e
00000010: dd72 743e 50b0 2b3e 499a 66bc 4b74 3b3c
00000020: a79c e2bd 073d 6bbe 3047 d1bd b316 30bf
00000030: c837 923e ae7e 28bf bb9e 20bf f46f 433e
00000040: 6d11 bc3d 1090 9b3e 7967 4c3e cd55 273e
00000050: 84cd 883e ebab f0bd ff26 bbbd 321b 3d3e
00000060: 2751 2f3e fce3 a8be 0d43 90be a0ee d23e
00000070: d6a9 86bd b220 a23e d8e1 79bd f66c 2cbd
00000080: 98cb bcbd be14 663e 296e a03e a47f 63be
00000090: 7db8 dd3c 9758 e0bd c6fe 353e e403 cbbd
000000a0: 58d9 b13e 278e f13d a881 353c cefe 98be
000000b0: 8b05 c23d 82e1 8ebe 1b16 943d 6aa9 673d
000000c0: 3a9f 21be 66df e53c e975 773e f636 83bd
000000d0: ceef 763e 4fbc a53e 2fb3 783e 01b0 b73d
000000e0: 3099 c0bb 2305 163e 5e03 9f3e 539a 28be
000000f0: 28e0 723d 1b42 79be bcdd 9a3e 9e01 e5bc
00000100: 0f6e 3abe cd20 053d 0e69 8dbe 30af 7e3e
00000110: 1b95 91be 26fe 7b3c 8498 e1bd e736 c23d
00000120: 4076 943e 8cb8 22be ba9e 8d3e 8f07 99be
00000130: ee55 9dbd 6d14 973e 2450 4c3e bce7 47be
00000140: 94a8 ac3e 07da 37be 3aeb 903e 55dc 1cbe
00000150: c156 233e fb61 443e 2e37 603d 8bc8 373e
00000160: aed9 a43e 9cd7 a03e b5b1 28be 812b 983e
00000170: 39c8 a53e f536 2cbd 0178 f03c 6adb 06be
00000180: 3839 2bbe 20b5 45be 21bd f13d 06c7 9e3e
00000190: 3ecd 103e 40df 7a3e 11fc 813e 0b00 23be
000001a0: 7425 c63d e8cc 8dbd b714 e23a 91f3 803d
000001b0: 4443 2ebe 0821 15be 9b75 bf3d a5a9 b03e
000001c0: 07f8 a9bd ab64 a1be 76af b43e f5e5 90be
000001d0: 772a 0bbe f6e5 b33e 4a2b b83e 2f9d 19be
000001e0: 2133 b0b9 b4c2 3bbe 14d0 923e 2411 c9be
000001f0: 1580 d6bc 8d12 ebbd ebf9 9d3e 1b6b 6dbe
00000200: 93f7 963e 9736 2d3e b23a 8fbe 7dd5 53be
00000210: 02f1 6fbe 6b9f 7cbe 674e 43bb 19f8 fcbd
00000220: 1690 3d3d c1bc 2bbe 354d c83e ea2b b83e
00000230: 06e3 32be 8bab 01be 7b94 d03e b66f 493e
00000240: cb91 713e 3156 0ebe b3b7 973e 3e45 bb3e
00000250: 06bd 843e 3ece ba3e 7de5 83be 2486 963d
00000260: e3fd a73e 088a a5be 7270 853e b750 403e
00000270: 04b1 86be 2f4b 473e 9036 8f3e d87f 7f3e
00000280: a0eb 5e3e 17e7 bfbc d01a e4be 804c 93bd
00000290: a38a d1be ac32 4f3c c67e b0bd d889 8ebe
000002a0: 28a2 acbe a115 7e3e b41b 9dbe f001 373d
000002b0: aa7e 1dbe 78d4 923d dbbb 5dbe 820c 8dbe
000002c0: fcff 8c3d 154d a53e 5dc3 3a3e 29a0 b1bc
000002d0: 669b e13d 9498 8d3e 7358 8c3e 41dc 873e
000002e0: 1e76 4abe 72f1 ecbd 66e4 f13d fc06 5d3e
000002f0: aa92 39bd 8e84 8cbe 8b66 cabe bde2 a53d
00000300: 1d79 e6be 243e e4be 314d e83e c880 3cbe
00000310: 087a 753e fbe3 163f 828a 9d3d cd3d 303e
00000320: 3109 45be d355 25be 83aa 36be 9c7f 88bd
00000330: e6ea dc3c 3466 943e dd32 323e aeef 8fbe
00000340: cbf7 973e 4a41 ac3e 4f64 58be cf45 45bc
00000350: 107b 143e 7c6d 7f3e 6d74 6cbe 8438 ce3d
00000360: 1d92 c23d 7f91 21be f713 843e 4a54 80be
00000370: 6f73 27be aaf2 423e 3eac 653e d3d2 84be
00000380: 0c86 8cbd 40c4 99be 0937 84be 0de8 3f3e
00000390: d306 8f3e 8ce5 51be ddbe e3bd 04b1 f53e
000003a0: 3456 8fbc f512 64bc 4399 afbe 980d 603d
000003b0: 9a54 a23e dc20 0c3e 0383 553c 89e3 a0be
000003c0: 9de2 893e 27ed 683d dcec b0be d2ca 283b
000003d0: 5e19 c6be a2b9 ddbe b548 e73e 9aed 0e3f
000003e0: ea47 cf3d 4b84 073d ae42 a438 5602 82be
000003f0: 1419 80be 7e62 41be 9f4e 04be 14a7 9dbe
0.21605027 0.20926064 -0.18128236 0.31254897 0.23871942 0.16766477 -0.01407487 0.011441301
-0.11065035 -0.22972499 -0.10218656 -0.68784636 0.28558183 -0.658183 -0.62742203 0.19085675
0.09183011 0.30383348 0.19961347 0.16341324 0.26719296 -0.11751541 -0.09138297 0.18467405
0.17120801 -0.32986438 -0.28176156 0.4119768 -0.065753624 0.3166557 -0.061006397 -0.0420961
-0.0921852 0.2246885 0.31334046 -0.2221666 0.02706551 -0.10954397 0.1777297 -0.099128515
0.34736133 0.117946915 0.011078276 -0.298819 0.094737135 -0.27906424 0.07230779 0.05655805
-0.15783396 0.028060626 0.24166073 -0.06406967 0.24114916 0.3237023 0.24287103 0.08969117
-0.0058776364 0.14650397 0.31057256 -0.1646512 0.059295803 -0.24341623 0.30247295 -0.027954873
-0.18206047 0.032501984 -0.27619213 0.24871516 -0.2843407 0.015380418 -0.11015418 0.09483128
0.28996468 -0.15890712 0.2766016 -0.2988858 -0.076824054 0.2950777 0.19952446 -0.19521993
0.33722365 -0.17954265 0.28304464 -0.15318425 0.15951063 0.19178002 0.054740123 0.17947595
0.32197326 0.31414497 -0.1647404 0.2972069 0.3237932 -0.0420446 0.029354097 -0.13169637
-0.16721046 -0.19307375 0.118036516 0.31011218 0.14140794 0.24499226 0.25387624 -0.15917985
0.09675112 -0.069238484 0.0017248605 0.062964566 -0.17017847 -0.14563382 0.09348603 0.34504429
-0.082992606 -0.31522116 0.35290116 -0.28300443 -0.13590418 0.35136384 0.35970527 -0.15001367
-0.0003360743 -0.18335992 0.28674376 -0.3927089 -0.026184121 -0.11478148 0.30854735 -0.23185389
0.2948576 0.16915356 -0.27974468 -0.20686908 -0.23431781 -0.24670188 -0.002980137 -0.123520084
0.04627999 -0.16771223 0.39121404 0.35971004 -0.17469415 -0.12663095 0.40738282 0.1967152
0.23590772 -0.13900067 0.2963234 0.36576265 0.25925463 0.36485475 -0.25761023 0.07349804
0.32810888 -0.32331872 0.2606235 0.1878079 -0.26306927 0.19462274 0.27971315 0.24951112
0.21769571 -0.023425622 -0.44551706 -0.071923256 -0.40926084 0.012646358 -0.0861793 -0.2783954
-0.33717465 0.24812938 -0.30685198 0.044679582 -0.1538035 0.071694314 -0.21653692 -0.27548605
0.06884763 0.3228537 0.18238588 -0.021682816 0.11015968 0.2765547 0.2741123 0.26535228
-0.1977162 -0.115694895 0.11811142 0.21584696 -0.045305885 -0.2744488 -0.3953136 0.080998875
-0.45014277 -0.4457866 0.45371392 -0.18408501 0.23972332 0.5894162 0.07692434 0.17211075
-0.19241787 -0.1614602 -0.17838483 -0.066649646 0.026967477 0.28984225 0.17402215 -0.2811255
0.2968124 0.33643562 -0.21132015 -0.012040569 0.1450007 0.24944109 -0.23091288 0.10069373
0.09500525 -0.15778159 0.25796482 -0.25064307 -0.16352628 0.19037881 0.22428986 -0.25942096
-0.06861505 -0.3003254 -0.25823238 0.18740864 0.27934894 -0.20497721 -0.11120389 0.47986615
-0.01749716 -0.013920535 -0.34296617 0.054700464 0.3170517 0.1368441 0.013031724 -0.31423596
0.26930705 0.05686679 -0.3455571 0.0025755656 -0.3869123 -0.4330569 0.4517266 0.558313
0.101211384 0.03308515 7.8325495e-05 -0.25392407 -0.25019133 -0.18885228 -0.12920617 -0.30791533

conv1.bias f4 [64]
00000000: ce42 8e3c daa9 f83b ac19 5e3e ff64 a13d
00000010: af24 b1bd 95c4 d0bd 39f5 84be cfab 67be
00000020: a587 88be efac 81be 7f83 b53d 7aec 003e
00000030: 2a50 823e 37b0 30be d4be 5e3e 838c e8bd
00000040: 2e7e b13d 7de1 ab3e eb6a dd3d 6032 a5bd
00000050: d61a eabc 43f3 9ebd e38f 823e f326 a13d
00000060: dae1 b73d 78e3 12be b208 4a3e 2c7a 31be
00000070: 4d1e 7d3e 2f5a 443d 02f6 55be 7f79 2a3e
00000080: f77a 603e 72a1 4fbe 0b3d 333e 115c dfbd
00000090: c63b 28be 870c 1e3e 4b7e a23d 6a8b b0bd
000000a0: 43ad 44be 61ab 893e 6f38 b23e 31cc a3bd
000000b0: d5b2 6e3e 7e9b 813e fc6e 3ebe e600 61be
000000c0: 069d 783e 40cd 953e fe00 473e 610b 8cbe
000000d0: 8e08 a7bd f39f a13e cb79 e43d 5a7f 79be
000000e0: c094 793e 5412 853e 21ad 9d3e 8818 903e
000000f0: 9534 10be 038e a13e dd7c 48be a87b 423e
0.01736584 0.0075886073 0.2168948 0.078805916 -0.08649575 -0.10193745 -0.2596834 -0.22624134
-0.2666599 -0.2532725 0.088629715 0.12590209 0.25451785 -0.1725472 0.21752483 -0.113549255
0.08666645 0.3357047 0.108114086 -0.08066249 -0.02857725 -0.07761242 0.25500402 0.07868757
0.08978625 -0.14344585 0.1972988 -0.17331761 0.2471859 0.04793757 -0.20894626 0.1664791
0.21921907 -0.2027643 0.17503755 -0.10906232 -0.16429052 0.15434466 0.07934245 -0.08620341
-0.19206719 0.26888564 0.3480868 -0.07997931 0.23310407 0.25313944 -0.18597025 -0.21972999
0.2427865 0.29258156 0.19433972 -0.2735243 -0.081559286 0.31567344 0.11156043 -0.24364987
0.2437315 0.25990546 0.3079615 0.28143716 -0.14082558 0.3155366 -0.19578882 0.18992484

conv2.weight f4 [32, 64, 3, 3]
00000000: 442f 703c 1640 643b 67f6 b53c 2a4f 283d
00000010: 369f 58bc 7290 35bc 8f68 69bc ce46 ed3c
00000020: cd90 f0bc f55e 51bd 5fc5 723a ba23 76bd
00000030: 0d10 653d b823 02bc ddd4 a9bd 2414 d4bb
00000040: 0b12 26bd 05b9 0cbd 4169 33bc 16eb ab3b
00000050: c11a 143d bf65 09bc 9a39 e33c ddb3 193d
00000060: 5815 863b dd4a 423d 5e91 413d ce63 9bba
00000070: cce5 153d fc9f 2f3c 9495 223d 3571 2c3d
00000080: 91d6 3a3d b0d8 2b3d 61ed 623b 15c8 dd3a
00000090: c232 fb3c 8cdf fabb ce35 4b3d ed24 3c3d
000000a0: 81a1 5f3c af38 d5bc ab80 1a3d 5785 d9bc
000000b0: 0fc3 21bd 789b ac3c 9d49 353d 2955 8cbb
000000c0: 578d 313d bff8 13bd f68a 30bc 3b32 0c3c
000000d0: 47ed 73bd f099 05bd 384c 4c3d b393 ab3b
000000e0: 9cc3 2b3d ee09 b93c 6f25 c9bc 65e8 343d
000000f0: 6c85 2c3d 3b90 313b bad6 62bc af01 a23c
00000100: b464 a73c bad1 2c3d ebd7 febc 51dc 033d
00000110: 1797 5dbc 22e9 c43c 8126 07bc 88d4 b23c
00000120: 1da1 353d e8e6 61ba 3b94 af3c 8345 3e3d
00000130: 6752 2cbc afa2 a2bb 0f4d 713d a1ab 91bc
00000140: c245 1abd a18d e53c 281b ab3c 8fcf d83c
00000150: 0f8b 963c 68c2 8e3b 5917 f5bc 3b09 0e3d
00000160: dfae 1c3d de4f a23c 4794 623d cb2e c2ba
00000170: cafe ee3a 4379 78bc ace6 023c fbe2 863c
00000180: 6cad 453d 2912 a5bc 46c0 153d 529b 823d
00000190: c6de 8c3c 9128 663d ee42 2f3d 5abd ec3b
000001a0: 5e91 913b 6e8b 3ebc f549 cbbc 0ad9 0c3d
000001b0: 7b00 ed3c d0ee 1cbd 15be 833c 01d8 223d
000001c0: b6cd e33c 306d 123c aede 1abd aa66 523c
000001d0: 328c 2bbc 075e 3bbc 6a0c f13c 2d9f 803c
000001e0: 237c 85bd a529 46bd 9420 15ba 7a84 e33b
000001f0: 7822 3d3c 22a5 b23a 6865 593d 0ba8 30bc
00000200: 49f9 0ebd 4346 e1bb 8023 2bbb 5d77 e53c
00000210: bd8f 4d3c 75d5 803c e901 673d 8294 893d
00000220: 9fa4 2dba d9b2 273c 3b63 7d3c 51d4 95bc
00000230: 899a ccbc cca3 0abd d232 313d 03de 16bd
00000240: c01f 403d 73f3 1a3d ac6b 853c cb3d 553d
00000250: 510f 8cbc 69e1 acbc 198d d23c f44a 4dbc
00000260: 4084 db3c 27a3 383d 1254 96b9 6b01 93bc
00000270: 0093 823c c2ea 5c3d 08b4 4e3d c8e2 143d
00000280: 2e24 ed3c 74d9 85b9 ca78 28bd d04a 71bd
00000290: b6e1 aabd a76f 8c3c 8750 ae3c 2ea4 88bb
000002a0: f901 8bbd 8e9e b3bd 334c 37bd 1b8c 143d
000002b0: 1940 e6bc 2922 3e3a fa45 d43c 25dc 9cbc
000002c0: 42fb 213b 1e0f df3a 3520 3bbb 6f02 473c
000002d0: c84b 403d db56 713d 947e 813c d89a 253b
000002e0: b69d 413c dd08 103d 71f4 3c3d f330 2dbc
000002f0: 831c f4bb 3de8 143d c10e a4bc d447 c1bd
00000300: b89d 043d cd6c 71bd 4b9c ecbd 850e de3d
00000310: 954b f3bd 1851 82bd f1c2 883b 2ccd 5fbc
00000320: 66d3 003d 67c1 363d 9942 cb3c ab48 9cbc
00000330: b55d 223c 6974 553d 59a7 113d aba4 e43c
00000340: 1ef8 103d d880 3e3d bd84 5c3c be1b 2a3d
00000350: 46ca 01bc 96ec d43c 50ac 8ebc f4d9 fd3c
00000360: 6da3 eabc 56cb 023c f90b febc c490 483d
00000370: 8a99 42bb 9ded 993b 3594 003c 4c36 b13b
00000380: 79a1 453a fb7c 293d b682 f7bc 6036 233d
00000390: 3cba b53c 3f52 283d a86c 8c3c 8227 8c3c
000003a0: 0413 cbbc 3c05 563d aedf e0bc a47e fd3c
000003b0: 6c3b 063d a11a 113d 1b84 ae3c 1907 80bc
000003c0: 41f3 033d 3c44 4e3b 78e1 b03a 337e c23d
000003d0: 7557 9a3d f0d3 153e 79d3 babd a6dc c03c
000003e0: a2ea a3bd d9a9 9dbd 9b52 cb3d 41fe 8f3d
000003f0: 6414 0bbd 765f 6dbd b2c6 91bd 82ba 943c
0.0146597065 0.0034828237 0.02221222 0.04109112 -0.013221553 -0.011081802 -0.01424612 0.028964426
-0.029365921 -0.05111595 0.0009260978 -0.060092665 0.05592351 -0.007943086 -0.082925536 -0.0064721275
-0.04054455 -0.034356136 -0.010950387 0.0052465303 0.036158327 -0.008386075 0.027737428 0.037525047
0.0040919 0.047434676 0.047257774 -0.0011855306 0.036596105 0.010719296 0.03969343 0.04210015
0.045614783 0.041954696 0.0034626352 0.0016920591 0.030663852 -0.0076560434 0.04961186 0.045933653
0.013649345 -0.026028005 0.037720364 -0.02655284 -0.039492663 0.021070227 0.044259656 -0.004282613
0.043347683 -0.036125895 -0.010775318 0.008556898 -0.059552457 -0.03261751 0.049877375 0.005236113
0.041934595 0.022587743 -0.024553983 0.04416694 0.04211943 0.0027094025 -0.01384514 0.019776193
0.020433761 0.0421922 -0.031108817 0.032192532 -0.013524792 0.024036948 -0.008248926 0.021829858
0.044343103 -0.00086174766 0.021432986 0.04645301 -0.010517693 -0.004963241 0.05891138 -0.017782034
-0.037664182 0.028021635 0.020886973 0.02646616 0.018376855 0.004356671 -0.02991836 0.03467677
0.038252708 0.019813474 0.05531719 -0.0014814971 0.0018233892 -0.01516563 0.007989567 0.016465655
0.04826109 -0.020150261 0.03656032 0.06377281 0.01719607 0.05619103 0.04278844 0.007224721
0.004442378 -0.011629922 -0.024815539 0.034386672 0.028930893 -0.038313687 0.01608185 0.03975678
0.027808052 0.008937165 -0.03781002 0.01284186 -0.010470437 -0.011435992 0.029424865 0.0157009
-0.06517818 -0.04837956 -0.00056887534 0.0069432827 0.0115438625 0.0013629536 0.053075224 -0.010782252
-0.034905706 -0.006874831 -0.002611369 0.028011018 0.012546477 0.015726784 0.056398306 0.06717779
-0.0006623957 0.010235512 0.015465553 -0.018289717 -0.024976032 -0.033847615 0.043261357 -0.03683282
0.04690528 0.037829828 0.016286694 0.052060883 -0.017097147 -0.021103578 0.025702046 -0.012530077
0.02679646 0.04507747 -0.00028672867 -0.017945012 0.015939236 0.05393482 0.05046466 0.036349088
0.028947916 -0.00025529752 -0.04113082 -0.058909237 -0.08343832 0.017143084 0.021278633 -0.0041699624
-0.06787486 -0.08770476 -0.044750404 0.036266427 -0.028106736 0.0007253015 0.025912274 -0.019147942
0.0024716412 0.0017018055 -0.0028553132 0.012146576 0.04694727 0.058920722 0.015807427 0.0025269296
0.011817386 0.035164703 0.046131555 -0.010570752 -0.007449688 0.036354292 -0.020026566 -0.09437528
0.032376975 -0.05894165 -0.11553248 0.10842613 -0.118796505 -0.06363124 0.0041736295 -0.013659757
0.031451605 0.044618037 0.02481203 -0.01907762 0.009910037 0.05211297 0.035559986 0.027910551
0.035392873 0.046509594 0.013459382 0.041530363 -0.007921761 0.02599172 -0.01741615 0.030987717
-0.02864238 0.007983049 -0.031011568 0.048966184 -0.0029693567 0.004697515 0.007847835 0.005408084
0.0007539015 0.041378956 -0.030213695 0.039846778 0.02218353 0.04109406 0.017141655 0.017108683
-0.02478934 0.052251086 -0.027450409 0.030944176 0.032771513 0.035425786 0.021303227 -0.015628384
0.032214407 0.0031473776 0.0013494929 0.09496727 0.07536212 0.14631629 -0.091223665 0.023542713
-0.08003737 -0.076984115 0.09927865 0.07030917 -0.033954993 -0.057952367 -0.07117976 0.01815534

conv2.bias f4 [32]
00000000: e7ee fcbc 3635 2c3d 3c78 dabc 6592 233d
00000010: f0a2 5b3c 383b 5e3d a8f4 183c 728c 923c
00000020: 9744 143c fcee b73c 6248 5c3b b602 473c
00000030: 849d 103d 9d28 4f3d 8f5f c63c 6fd2 633c
00000040: ba4e 903b 14f8 863c 2805 f7bb caf2 33bc
00000050: 02e4 0c3d 12c4 543d 4aaf 6e3d 2002 043d
00000060: e79a 8d3c 6a92 273b fee1 b73c 7830 863d
00000070: adaf 1e3d 03ec b4bc 224d 013d ea89 b03c
-0.030875636 0.042042933 -0.02666866 0.039934535 0.013405547 0.054255694 0.009335674 0.017889235
0.009049556 0.022452824 0.003361248 0.012146642 0.03530647 0.05057584 0.024215488 0.013905152
0.004403916 0.016475715 -0.0075384565 -0.010983178 0.034397133 0.0519448 0.058272637 0.03222859
0.017285777 0.0025569447 0.022446629 0.065522134 0.038741756 -0.022085195 0.0315677 0.021550138

conv3.weight f4 [16, 32, 3, 3]
00000000: 0821 db3c 2086 6cbb 0879 273d 1500 d83b
00000010: fbcb 13bd c97c 543c dd9e 9fbb 1b0b f8bc
00000020: 6ba8 0cbd b1dd 0bbd 08ea 043d abee a03c
00000030: 20d4 9a3d bc57 313d 3442 fabc 8bb1 893d
00000040: f8a5 0abc 6045 833d 0eac 4cbb 53c9 083d
00000050: 67cc 533b ca1b d03c 4706 033d dafa 2ebd
00000060: 67b7 e63b 5fc4 3b3d d88e 1dbd 5b5d 09bc
00000070: 8fa3 91bd 8e0d 86bc ff8e a73a 8027 6abd
00000080: 2d0f 25bd 6a18 acb8 bd85 ebbd 91e7 f7bc
00000090: fbb0 45bc e8c6 df3c 04e5 92bb beb5 49bc
000000a0: 8c10 753d 1d0e 903c 3b71 1c3d c56e 523c
000000b0: e2e6 4c3d b423 463d 6cfb e83c 85a0 7dbc
000000c0: 2c9e 8e3d eba2 fcbc 84c3 3cbc e02d c8bc
000000d0: e484 023d 5577 9dbc 9fe8 403d 049f 113d
000000e0: 1099 1d3d 673a 36bd 8650 0dbd 081a a4bc
000000f0: 2c35 a6bb c3f5 663d 89d1 8d3d e708 943d
00000100: 2945 933d ed2e 43bc ef48 903d cfce 2d3d
00000110: efaa 7c3d c253 35bd 5723 a1bc 0c84 733d
00000120: d6e2 56bd 75d4 7fbc c0ce 323d 081f cd3c
00000130: 79e3 493c 2951 6d3c 44b1 d3bc 5bd7 06bc
00000140: 06c0 43bd 0c13 3cbc 0275 64bd bb06 d63c
00000150: e741 babc 9d2c bcbd 78fc 69bc 822e e93b
00000160: 6544 a4bc 2259 063d d9c4 a43c 3f00 0abd
00000170: 3a23 06bd 5d8d 0bbc bda8 2fbd a468 383d
00000180: f7f2 38bd 1b89 aabc 2152 9abc f7bb eabc
00000190: ee35 093d b2c3 fc3c c5c7 05ba 1cc0 7c3c
000001a0: 35a5 523d 0422 903c fa97 5ebc b338 38bc
000001b0: e25d d73b bd96 c0bc 84c7 e23c 52ca 803d
000001c0: c4f5 0eb9 a86d 2b3d 2c0c 5f3d e92c 2c3d
000001d0: ec1a cf3b 81b2 39bd 5489 903d b193 253d
000001e0: 7db7 4bbb b39f c63d 78b4 0abc f3b4 993c
000001f0: 68c0 5dbd effe 13bd 1a36 243d 7d8a dcbc
00000200: 3a45 073d c667 353c f024 893d ebeb 0e3d
00000210: 23cb 483d f742 513d 6e50 5c3d 72a4 f83c
00000220: afaa a63c adf3 583d a8b7 52bd 7af0 58bd
00000230: 032e eebc 4cdf 3bbc 71f3 55bd 6941 903c
00000240: bf93 323d d932 13bd 336c 733d f9c9 69bd
00000250: 6096 77bc 30b7 dd3c 5e13 13bc 420b 70bd
00000260: 627b 3bbc 05c5 e93c 024c 153d c63f 2b3c
00000270: 64ed f53b fe34 513d cc87 303d 4050 2abd
00000280: f2bd 913d 816d 5d3d 5790 703c 6d5f 953c
00000290: c6a3 853d 33ef 75bb 31af afbc b93c 7d3d
000002a0: 8fca 1abd d707 5b3d ca30 6e3d fa22 41bd
000002b0: d6ba 81bc 2b27 31bd c7bf 60bd 52c6 133d
000002c0: 9b3f 60bc 36e1 1c3d 7b75 c5bc 0365 c9bc
000002d0: f187 74bd ced3 173d 7f06 0ebc eea2 d3bc
000002e0: 98eb 2abd 21d7 c2bc c2f5 53bd 7675 03bd
000002f0: 0b4f 073b e427 26bd 2882 093c 263c 25bc
00000300: 6df7 2ebd 1645 b23d 045e ccbc 4844 da3c
00000310: e8ba b3bc 814a 883d b5d9 643d cc66 703d
00000320: d7f4 c6bc b9c3 a33d 1eb7 253d 0599 0bbd
00000330: 6bd4 92bc 4867 8f3d 525a 04bc 8d98 493d
00000340: d235 993a 26fd 3f3d 7500 933d 9c6a 5e3d
00000350: 7ac9 1cbc eb47 23bd a8a7 63bd 8613 773d
00000360: 5228 15bc a7d5 5b3d 2e30 4f3d 82fc 2b3b
00000370: 814b fd3d 2df1 203b a10a 1d3d d062 6cbd
00000380: dc74 7239 20ab d7bc f592 6bbd 5c02 d5bb
00000390: 653b 3fbd 5bc2 e6bc 1828 acbd a76a fd3c
000003a0: 9a97 88bd c0e9 fcbc 7019 6b3d 1da5 6f3c
000003b0: 2a2b a73c bfd0 a6bc 2cb4 b73b 49f1 6e3d
000003c0: 5959 903d 7e6e 9cbc f8d8 7b3c 02e6 103c
000003d0: 130f 5bbd 75b7 86bd 6233 213d 7eda cf3c
000003e0: e266 25bd 6a47 563d d197 d73c ec62 cbbb
000003f0: 1f03 84bc 1564 183d 6b93 f23b e232 aabd
0.026749149 -0.0036090687 0.04088691 0.0065918067 -0.036083203 0.012969204 -0.004871233 -0.030278733
-0.034340303 -0.03414697 0.032449752 0.019645056 0.07559991 0.04329656 -0.030549146 0.06723317
-0.008462422 0.064097166 -0.0031230482 0.033395123 0.0032317878 0.025403876 0.03198841 -0.0427197
0.007040906 0.04584157 -0.038466305 -0.008384074 -0.071112745 -0.016363885 0.0012783705 -0.057166576
-0.040297676 -8.2061466e-05 -0.11500118 -0.030261787 -0.012066121 0.027316526 -0.004482867 -0.012311397
0.059830233 0.017584855 0.038193922 0.012843792 0.050024875 0.048373893 0.0284402 -0.015480165
0.06963763 -0.030839404 -0.011521224 -0.024435937 0.031865016 -0.019221941 0.047096845 0.03555204
0.03847605 -0.04448929 -0.03450062 -0.020031944 -0.0050722566 0.05638672 0.06924731 0.072282605
0.07190926 -0.011913043 0.07045161 0.042433556 0.061686452 -0.04426933 -0.019670172 0.0594521
-0.05246242 -0.015614619 0.043654203 0.02503921 0.0123223 0.014484682 -0.025841363 -0.008230056
-0.04779055 -0.0114791505 -0.05577565 0.026126256 -0.022736503 -0.09188197 -0.014281385 0.00711614
-0.020052144 0.032799847 0.020113396 -0.03369164 -0.03274844 -0.00851759 -0.04288553 0.045021668
-0.045153584 -0.02081733 -0.01883799 -0.028654082 0.033498697 0.030855034 -0.00051033153 0.015426662
0.051427085 0.017594345 -0.013586039 -0.011243987 0.006572471 -0.023509378 0.027683027 0.062885895
-0.0001363373 0.041852623 0.054454967 0.042035017 0.006320348 -0.04533625 0.07057443 0.040424053
-0.003108471 0.09698429 -0.008465879 0.018763041 -0.05413857 -0.036131795 0.040090658 -0.026921505
0.033025004 0.011072105 0.066964984 0.034892958 0.04902185 0.051089253 0.05378764 0.030351851
0.02034506 0.052966762 -0.05144468 -0.05296371 -0.029074674 -0.011466812 -0.052234117 0.017609315
0.043597933 -0.035937164 0.05942936 -0.05707738 -0.015111536 0.02706489 -0.0089767855 -0.058604486
-0.011442991 0.028536329 0.03644944 0.0104522165 0.007505106 0.051075928 0.043098256 -0.04158044
0.07116307 0.05405951 0.014682851 0.01823398 0.06525378 -0.0037526607 -0.021445842 0.061825488
-0.03779083 0.053474274 0.058151998 -0.047152497 -0.01583616 -0.043250244 -0.054870393 0.036077805
-0.01368704 0.038300715 -0.02410387 -0.024584299 -0.059699956 0.037067227 -0.008668541 -0.025834527
-0.041728586 -0.023784222 -0.051748045 -0.03209444 0.0020646479 -0.040565386 0.008392848 -0.010085141
-0.042716432 0.08704583 -0.024947174 0.026643887 -0.02193971 0.066548355 0.055871684 0.058691785
-0.02428667 0.079963155 0.040457837 -0.034081478 -0.017923554 0.07002121 -0.008078175 0.04921775
0.0011689013 0.04687228 0.071778215 0.05430089 -0.00956952 -0.03986351 -0.05557981 0.060321353
-0.009103851 0.05367055 0.050583057 0.0026243036 0.12367917 0.0024557814 0.038340215 -0.057711422
0.00023122452 -0.026326716 -0.057513196 -0.0065005254 -0.046687502 -0.028168848 -0.08406085 0.030934645
-0.06669541 -0.03087318 0.057397306 0.014626768 0.020406324 -0.02036321 0.005606195 0.058335576
0.07048292 -0.019095656 0.015371554 0.008843901 -0.053481173 -0.065779604 0.039355643 0.02537274
-0.04038132 0.0523142 0.026317509 -0.0062068608 -0.01611477 0.03720482 0.0074028275 -0.083104864

conv3.bias f4 [16]
00000000: f07b 0bbd c881 5f3d 480e 493d 6f6c 12bd
00000010: 211c 553d 263f b43b 0942 b63c 17a2 e5bc
00000020: 949b 16bd 38d9 af3b 42ce 61bb f127 f53c
00000030: 53e4 b23c b33c 01bc 3263 073d 22f3 883c
-0.034053743 0.05456713 0.049085885 -0.03574794 0.05202878 0.005500692 0.022248285 -0.028031392
-0.036769465 0.0053664707 -0.0034455215 0.029926272 0.02183739 -0.007888007 0.033053584 0.016717497

tran_conv1.weight f4 [16, 32, 3, 3]
00000000: 791d a9bd 29dd 843c 6bdd 5b3c 3776 eebb
00000010: 3985 bebc 41be c53c 0089 8ebd 37f4 a33d
00000020: dd94 36bd c64b b6bd b000 61bc 3b0e d5bd
00000030: e0cc b83c d2b9 403d 803b 2bbb 1b08 583d
00000040: 0fdc 893c 9557 503e b3e0 9ebd ebd7 ccbc
00000050: 0ce5 803c d18b e93c 8393 4ebd 0849 24be
00000060: 1661 1d3d 17ae 2b3c 27db 0ebe 40bc 853d
00000070: 784e 0d3d 3d2e b33d e226 05bc 2487 88bd
00000080: ce11 41bd 30db 7f3c 7246 73bc e4e0 863d
00000090: 40ce 4f3c c938 a23d e135 b7bc dcd0 b1bd
000000a0: ade0 46bd d71a 633d d02b 99bd 51ec 4dbd
000000b0: 7a1a 18bb b94a 883d 24e9 7abd b180 22bc
000000c0: 157c cbbc e394 28bd 9297 ebbc 0f39 973d
000000d0: 426a 84bd 7704 a73d 7132 84bc cda4 bc3c
000000e0: 4a63 9b3c 1d32 57bd bb4d 273d a238 8d3c
000000f0: c5c1 7c3d 342b 943d 087b 823d d084 0b3d
00000100: 4c37 6b3d 7889 3abc 05cb 2bbd 7a26 903d
00000110: c54a 2dbd 6dc1 bdbc 6c86 e53d b20c be3d
00000120: 5e35 15bc 7e81 303b 454b 95bc 27d9 613b
00000130: 50c6 e83c b5a9 58bd a985 b23c 761d 6d3d
00000140: d54c 93bd 6422 f0bc ef37 a8bc 9dcb f8bc
00000150: 133d 0abd e244 7bbc 2991 09be 3707 633d
00000160: 3560 edbb 38e2 43bd a264 823a 13b0 5fbc
00000170: 2f3b 4ebb fb39 acbc e69b 983d cba9 a83d
00000180: 6be4 823d 6235 843b 6527 0a3e c50a 0cbd
00000190: 7609 36bd 3d06 34bd 67e4 4ebd 83cc 2a3d
000001a0: f516 b4bd 8afa c0bb a5fd 82bc bae7 7bbd
000001b0: 955b b03d 536e 80bd 6f4c 97bd b988 ff3c
000001c0: d6c8 66bd 9a4a 6dbd 1533 633c c0bf 4cbd
000001d0: e569 af3c b222 893d b457 093d 35f2 5cbb
000001e0: 2022 82bd 1c14 7f3d 6e1f 3dbd 46a2 343c
000001f0: 16a0 ba3d 1e9f b8bc e78b 62bd 62dd 0bbd
00000200: fa30 933d cd00 043d 7360 223d a16c 053d
00000210: 669b f7bc 796d eabc a24d f6bc 0800 a43d
00000220: 12b4 a4bc d233 933d 3ca7 fdbc dfc9 623d
00000230: 6d3a 773d 902e 053e ceb4 cabb 3c30 e43d
00000240: 4dac 17bd 91f5 363d cf09 af3d 022e aebd
00000250: 0a08 afbd f9a3 353d 59ef cbbc 6943 b2bd
00000260: 4cbb b7bb 2d79 f93c 3cdd 8b3c de1f 473d
00000270: a240 a2bd d362 dfba ad0c a63d c47d a03d
00000280: ae10 42bd a04a 2c3d 535b 583c 3956 a43d
00000290: 5c72 a5bd 6578 1abd cd2b 15bc 6a7c 89bd
000002a0: 5b31 2d3d 3576 e93c eff9 043c 5dd4 52bd
000002b0: 5010 273c 3a89 11bd 8c0b e0bc 7461 83bd
000002c0: 94bd 80bd 7b34 da3d cce1 b9bc 2523 5b3d
000002d0: 3a0c a3bc c1b4 423c d4aa 8ebd 7fbe 8ebd
000002e0: 410e e03b 9f8c 613d 1d63 a8bc edf3 d33c
000002f0: 65c9 16bd 4261 953d 71ab fdbc e04a 09bd
00000300: 06c5 3ebd 58d6 bd3d e539 fc3c cedd 79bc
00000310: 9f0a e43d 4a05 913c 5e51 e43c d38c a23d
00000320: 1ddc 0fbd 3a63 06bd 971f 15bb ad65 4a3d
00000330: 43a0 6b3d b42d 22bd 838e 66bc 943c e43b
00000340: 6dd3 9cbd ed38 213d 0fc8 913d 422b 73bc
00000350: 9aa4 d93d 1812 273d 6bb2 c13d 8f4d 963d
00000360: a243 9c3d c07d ad3d c15f d2bc 3968 493c
00000370: fe1a 9ebd 5b48 9abc d76b 66bd 8806 97bc
00000380: 1139 563d 70d6 89ba 9785 d8bb d6fb f3bc
00000390: 5856 a9bc 54c1 e93c 2a63 9f3d 83a6 b13d
000003a0: 0385 973d e43e 8dbd e245 edbc d5ab 7bbc
000003b0: 43d0 bcbc d976 3f3d 6b52 41be 5dc7 5b3d
000003c0: ce29 5ebc f580 a2bc c0d5 403d 5648 283d
000003d0: 4076 d83d d2a1 b6bd 6760 b1bd fbd2 79bb
000003e0: cd58 36bd 6eaf 89bc 2704 b3bc b2d1 29bd
000003f0: c819 82bd 4c77 febc d24b b1bc b234 ab3d
-0.082575746 0.016218739 0.013419489 -0.007277276 -0.023256885 0.024138572 -0.069597244 0.08005565
-0.04457556 -0.089011714 -0.013733074 -0.10403105 0.02255863 0.047052212 -0.0026127994 0.052742105
0.016828565 0.2034591 -0.07757702 -0.025005301 0.015734218 0.028509052 -0.050433647 -0.16043484
0.038422666 0.010478518 -0.13950787 0.065300465 0.03449866 0.087490536 -0.008126946 -0.06666401
-0.04713612 0.015616223 -0.014848338 0.06585863 0.012683451 0.07920987 -0.022364559 -0.08682415
-0.04855411 0.05544552 -0.0747906 -0.050274197 -0.002320914 0.06654877 -0.061257496 -0.009918378
-0.02483944 -0.041157614 -0.028758798 0.0738393 -0.064655796 0.081551485 -0.016137334 0.023027802
0.018968243 -0.052538026 0.040845614 0.017238919 0.06170823 0.07234803 0.063711226 0.034062207
0.057425782 -0.011385314 -0.04194166 0.07038589 -0.042307634 -0.023163522 0.112072796 0.09279765
-0.009106962 0.0026932652 -0.018224368 0.0034461708 0.028414875 -0.05289622 0.02179225 0.057889424
-0.07192389 -0.029313274 -0.020534484 -0.030370528 -0.03374965 -0.015336247 -0.1343428 0.055426802
-0.007244135 -0.04782316 0.0009948204 -0.013652819 -0.0031468382 -0.021023741 0.0745161 0.082355104
0.063912235 0.004034684 0.1349159 -0.034189958 -0.044442616 -0.04395126 -0.05051079 0.041698944
-0.08793441 -0.0058892416 -0.015990088 -0.06150029 0.08611218 -0.06271043 -0.073876254 0.031193124
-0.056343876 -0.057932474 0.013867159 -0.049987555 0.0214128 0.06696071 0.033530906 -0.0033713703
-0.06354165 0.062275037 -0.04617255 0.011025017 0.09112565 -0.02253681 -0.055309203 -0.034146674
0.07187076 0.032227326 0.039642762 0.0325743 -0.030225467 -0.028616654 -0.030066315 0.080078185
-0.020105395 0.07187618 -0.030963533 0.0553683 0.060358454 0.13006043 -0.0061861044 0.111420125
-0.037029553 0.044667784 0.08546793 -0.08504869 -0.08546455 0.04434583 -0.024894403 -0.08704264
-0.0056070443 0.030453289 0.017073266 0.048614375 -0.07922484 -0.0017043002 0.081078865 0.07836488
-0.04737919 0.042063355 0.013205367 0.08024258 -0.08078453 -0.037712473 -0.009104681 -0.06713183
0.042283397 0.028498748 0.008116229 -0.051472057 0.01019676 -0.03553126 -0.027349256 -0.06415072
-0.06286159 0.10654541 -0.022690676 0.053500313 -0.019903291 0.011883915 -0.06966177 -0.06969928
0.0068376367 0.055065747 -0.020555073 0.025873149 -0.03681316 0.07293941 -0.030965539 -0.033518672
-0.046574615 0.092693985 0.030789325 -0.015250636 0.11134838 0.017702717 0.02787083 0.07937016
-0.035122026 -0.032809474 -0.0022754425 0.04941337 0.057525884 -0.039594367 -0.014072063 0.0069652293
-0.07657514 0.03936093 0.07118236 -0.014841856 0.106270984 0.04078874 0.09457859 0.07339012
0.076300874 0.084712505 -0.025680425 0.012292915 -0.07719992 -0.01883333 -0.056255188 -0.018435732
0.052300517 -0.0010516178 -0.006607722 -0.02978317 -0.020671055 0.028534569 0.07782586 0.08674338
0.07398417 -0.06896761 -0.028963987 -0.015360792 -0.023048526 0.0467442 -0.18879096 0.053656925
-0.013559772 -0.019836882 0.047078848 0.04108461 0.105694294 -0.089175835 -0.086609654 -0.003812014
-0.04451828 -0.016807284 -0.021852566 -0.041459747 -0.06352574 -0.031062745 -0.0216426 0.0835966

tran_conv1.bias f4 [32]
00000000: a831 343d e9bc 5b3c 8582 99bd 781b 41bd
00000010: f13c 9bbd 69c7 b33d c9e8 bb3c c19c 803d
00000020: 6192 863d 9a69 c0bc 883a 503d 101d e9bc
00000030: 9dd4 25bd 9fac b03d 77a5 a5bd 4bf1 88bc
00000040: 4601 14bd fa44 5f3d 37ce c03c b565 24bd
00000050: 890c 8dbc 62c1 c3bc 8de6 dc3d 1e54 5ebd
00000060: 9ce8 c23c 5075 8a3d a15f 943c b3bd 00bd
00000070: 690e 9c3d 6b03 21bd 5406 583d 29bc bb3d
0.04399267 0.013411739 -0.07495598 -0.047145337 -0.07579983 0.08778269 0.022938149 0.062798984
0.06570888 -0.023487855 0.05083707 -0.02845624 -0.040485967 0.08626675 -0.080882005 -0.01671662
-0.036134027 0.05450914 0.02353583 -0.040136058 -0.017217891 -0.023895923 0.107861616 -0.05427944
0.023792557 0.06760657 0.018112006 -0.03143091 0.07619936 -0.0393099 0.05274041 0.09166748

conv4.weight f4 [32, 32, 3, 3]
00000000: 7f42 353d 40e0 a23e 04df 04be 66c1 84bc
00000010: 47d0 923e 5df5 24be 068e d83d 124f 373d
00000020: 7237 abbd d7d0 3e3c b8b3 9b3d c029 943d
00000030: ee4b 0a3d 12d9 343e e10c b73d fc11 7cbd
00000040: 0faf d1bd 329d bfbd 4993 95ba 7f74 75bb
00000050: 492a 32bc 2c1c bebc 4346 84bd 519c bcbc
00000060: a8e5 a53d 6087 0a3d de40 ad3d 4871 a2bd
00000070: a599 b938 adb1 1c3d 10da 53bd 4950 22bc
00000080: e667 38bd 4ac8 0c3d e924 0c3c 84ba 6ebd
00000090: dd21 e5ba 299b 37bc 7edb 7d3c 2451 9cbd
000000a0: ed6e 0cbd 4997 acbd 9621 553a 788f ef3c
000000b0: 5eee b53c 3e01 59bd 4674 583d 0e9b a43c
000000c0: 0085 c0bc de42 0cbd 6890 cbbc 8e76 23bd
000000d0: 38db 13bd 854b db3b e962 3bbd c3db a23c
000000e0: 9ae5 5d3c 4f44 84bd ddbc b83d 5cbb ad3d
000000f0: 390f 12bd 65eb ec3c 465f 12bd 8ccb 52bd
00000100: 9ad3 a23c d39b 29bc 605a 053d a51e 993c
00000110: 9d6d 49bd 03f0 9e3d cc68 33bd be4a a2bd
00000120: fe71 9bb7 9014 c9bc ab39 e8bc 0f7a 0f3b
00000130: 1852 4e3b 860d 3fbd d685 363d 66c6 223d
00000140: ac79 bd3b 87c6 8dbc 42f5 3ebd 5bf5 c5bc
00000150: 96e8 f33b 09eb afbd 0fdf b3bd 28d0 093d
00000160: a010 77bd bdc5 0f3d a051 ae3d ee85 813d
00000170: 7604 363d c7ba 363d 0f77 c3bb b5c9 053d
00000180: 15fd 993c 19dc 1dbd 090d 5ebc be8b 523d
00000190: 4952 06bd 5c3e 413c 785b 41bc 5757 21bd
000001a0: a9c6 6abd 1b35 5c3c 761d 193d 8ec8 2bbd
000001b0: 5d44 fb3c 8cee f3bc a4ef d73c c950 d3bc
000001c0: 7ba9 2fbc 0501 583d 2f87 733d 35cc 09bd
000001d0: 7016 4d3d 4d7f a93d bcaa 4e3d 0996 8d3b
000001e0: d582 4b3c 0bc3 6b3d 4137 d73c 8ad0 943d
000001f0: 1bb5 b2bc ab87 093d 0a82 8a3d d22b 803e
00000200: 29ef 403d 6067 da3d d225 ee3e 435e 363e
00000210: 0f4c fa3c cfa4 c23d b96f 223d 3379 e73c
00000220: b473 293c d1e7 c43c d717 9e3d dd6b da3d
00000230: 61e0 663d 5fc2 8b3c 7585 19bc 5700 1fbd
00000240: 3080 d5bc 48f0 58bd 1e8e a4bd 8863 f1b8
00000250: ffbd 903c 5801 96bb 4f81 bdbc 53c0 253d
00000260: 670c fabc f744 8b3d 4052 903d c818 053d
00000270: 6aff e23b 6626 b23d 8fea 29bd a093 7fba
00000280: 5816 45bd 6eb5 83bd 7f2c e53c 4581 e33d
00000290: 3832 fe3c 601e d43b 3239 583c 2a55 873c
000002a0: 1605 50bd 53c8 f93c 50ce b7bd ada2 2f3d
000002b0: 6ba3 943e 4a8d 213e b940 84bd e477 273d
000002c0: 7d44 b33c 7bae 21bd b86c a8be 3201 88bc
000002d0: a603 15be d84d 94bc 1bf7 42bb 471e e7bd
000002e0: 0791 d43d 413a ae3d 8bda 79bd c0fb a23d
000002f0: 3dd6 babc c20b c03c 5fa3 f5bc 962c ffbc
00000300: 10a9 78bd 8488 bebc ef06 22bc f81f 78bc
00000310: e295 d43d fdbd 36bc 963f 74bc 5692 263d
00000320: f150 05bd 2580 2ebd 1087 2ebd 4fca bd3c
00000330: c40d 76bd eb81 3ebd 6f20 f4bd f897 043e
00000340: 1cdb eb3d d26f b13d 3578 47bd 51a8 0c3e
00000350: 0faa 853d 1694 be3b 938b bf3d 24e3 18bd
00000360: c71a 03bc b85d b73b 70c6 82bd 7404 863c
00000370: 4383 493d 11f7 92bd 61bd 8b3c dcfb 8fbd
00000380: 7c15 d2bc be39 5d3d 8827 abbc d053 4ebb
00000390: 8773 1dbc ae5c 823d 7487 083d 4ade 15bd
000003a0: cd2d 143d fb28 5b3a 9f97 06bc 7b39 ba3c
000003b0: eec6 353b 2723 933c efbc 51bd 510b 79bc
000003c0: 1908 ad3b 2ccd d4bc a261 203b e04d f13b
000003d0: aad4 21be 6dd0 cf3c acbb 153e 65dd ec3d
000003e0: 892e ab3d 2423 073e 3ad9 a13c a3a8 d03d
000003f0: 9bce 263d 822a 913c 7027 1e3d 8fe5 22bd
0.04425287 0.31811714 -0.12975699 -0.0162055 0.28674528 -0.16109224 0.10573964 0.04475314
-0.08360185 0.011646471 0.07602638 0.07234526 0.03376382 0.17660931 0.08938003 -0.06154059
-0.10238468 -0.093561545 -0.0011411692 -0.003745347 -0.010874339 -0.023206793 -0.06458714 -0.023023756
0.08100444 0.03382051 0.08459638 -0.07931763 8.850106e-05 0.038255382 -0.051721632 -0.009906837
-0.04502096 0.034370698 0.008553722 -0.058283344 -0.0017481406 -0.011206427 0.015494226 -0.07632664
-0.034285475 -0.08427293 0.000813031 0.029243216 0.022208389 -0.0529797 0.052845262 0.020093467
-0.02350092 -0.034243457 -0.024849132 -0.039907984 -0.036097735 0.0066923522 -0.045748625 0.019880181
0.013543511 -0.06458341 0.09020398 0.084830016 -0.03565905 0.028920839 -0.03573539 -0.05146365
0.01987629 -0.010352093 0.03255689 0.01869137 -0.0491768 0.07760622 -0.043801114 -0.07924412
-1.8530522e-05 -0.024545938 -0.02834781 0.002189282 0.0031482037 -0.046643756 0.04456123 0.03973999
0.0057823267 -0.01730658 -0.046620615 -0.024164846 0.007443498 -0.08589751 -0.087827794 0.03364578
-0.06031859 0.035100687 0.085116625 0.06324373 0.044437848 0.04461172 -0.0059651206 0.032663066
0.018797437 -0.03853998 -0.0135529125 0.0514028 -0.032793317 0.011794653 -0.011801593 -0.039389934
-0.057318363 0.013440396 0.03738161 -0.04193931 0.030672247 -0.029776834 0.026359387 -0.025795357
-0.01072156 0.052735347 0.059455093 -0.033642013 0.050070226 0.08276234 0.050455794 0.004320864
0.0124213295 0.057559054 0.026271464 0.07266338 -0.021814873 0.03357665 0.06763084 0.25033432
0.04710308 0.106642485 0.4651323 0.17809395 0.030553846 0.09504091 0.03965733 0.028256034
0.010342527 0.02403632 0.07719391 0.106651045 0.05636633 0.017060457 -0.009370198 -0.038818683
-0.026062101 -0.052963525 -0.08034919 -0.00011510315 0.017668722 -0.004577797 -0.023132948 0.040466618
-0.030523492 0.068002634 0.07046938 0.032494336 0.0069274204 0.0869873 -0.041483458 -0.0009749476
-0.04811701 -0.06431089 0.027975319 0.111086406 0.031029806 0.0064733475 0.01319723 0.016520102
-0.0507861 0.03049103 -0.08974898 0.04287975 0.29030928 0.15776554 -0.06457657 0.04088582
0.021883244 -0.03947304 -0.32895446 -0.016602132 -0.14552173 -0.018103525 -0.0029749337 -0.11285072
0.10379224 0.08507205 -0.060999434 0.07958174 -0.022807235 0.023443107 -0.029985128 -0.03114919
-0.060708106 -0.023258455 -0.009889348 -0.015144341 0.103801504 -0.011153695 -0.014907738 0.0406669
-0.032547895 -0.042602677 -0.042609274 0.023167757 -0.06007172 -0.04651062 -0.11920249 0.12948596
0.11516401 0.08663906 -0.048698623 0.13736083 0.06526577 0.005815993 0.093527935 -0.037325993
-0.00800199 0.005595889 -0.06385505 0.016359545 0.049197447 -0.071760304 0.017058076 -0.0703046
-0.02564501 0.054010145 -0.020892873 -0.0031483062 -0.009610063 0.063653335 0.033332303 -0.036588944
0.03617649 0.00083602936 -0.00821486 0.022732487 0.002773698 0.017961098 -0.05120557 -0.015200452
0.0052805063 -0.02597674 0.0024472256 0.0073640198 -0.15803781 0.02536794 0.14622372 0.11565665
0.08358485 0.13196999 0.019756902 0.10188415 0.040724378 0.017720465 0.03861183 -0.039769705

conv4.bias f4 [32]
00000000: bf44 b0ba 985d 153c 9e88 883b 9dc9 cb3c
00000010: 44be 3bbd b4fd 42bd c901 fc3b eb61 51bd
00000020: 007f 2c3d bf9c 173d 5fbb 22bc 7a21 8c3d
00000030: 406a 12bd 3a5c 943d f2d2 48bc 8ac6 453d
00000040: fb16 bb3c 8c7d 853d 0115 173b f537 75bb
00000050: e767 86bc 91ed acbc 99e4 263d c853 8c3b
00000060: b060 94bc 5247 823d 327a 16bd 606d c73c
00000070: bf81 603d 310a ccbc f13c 2c3d 4cdb a53d
-0.0013448222 0.009116553 0.0041666767 0.02487641 -0.04583575 -0.04760523 0.0076906425 -0.051118772
0.042113304 0.03701472 -0.009932368 0.06842323 -0.03574586 0.07244153 -0.0122573245 0.048285045
0.022838106 0.06518087 0.002305329 -0.0037417386 -0.016406966 -0.021109374 0.04074535 0.0042824484
-0.01811251 0.063612595 -0.03673763 0.024344146 0.054811236 -0.024907203 0.042050306 0.08098468

tran_conv2.weight f4 [32, 64, 3, 3]
00000000: fd4a 30be 73e5 403d 5c09 25be 4e40 54be
00000010: f220 1dbd 0328 023c 18f5 32be be4c 983d
00000020: 40e0 18be 7162 df3d b7bc bf3d a88d 823e
00000030: b821 c8bc d7a7 5d3e 0094 b93d 4eba 483e
00000040: 32a5 46bd 505b 9d3e 5ef9 82bd f81a 4bbd
00000050: dde1 1a3d c0c7 283e 6f16 113e da59 413e
00000060: 2161 1e3c 9bd5 2dbd 5152 003d cb5d 33be
00000070: 72af 003e bb41 8b3e cced 733d 243e f63d
00000080: d1b2 523e f314 d73d 3e90 23bd d83d 8a3e
00000090: a340 5c3e 416a 4dbd 2088 4d3e da24 f33a
000000a0: d768 293e 6943 4f3d 404b c13d 04bc 6e3d
000000b0: 5784 2ebe 74eb 113e 2380 7dbe a4e0 2a3e
000000c0: 4a81 bb3d 8b53 5c3d 3433 2dbd ec10 a3bd
000000d0: 7338 6c3e 8ac7 a3be ef95 1dbc fd39 3c3d
000000e0: d141 b7bd 39d1 183d 0588 2d3e 450a 8cbd
000000f0: f4b0 e83d 74a5 2bbe 3826 083e 46cd 6d3d
00000100: dd19 f93d 763e bd3c 5d24 bd3d 0c86 703e
00000110: 4045 523e a220 8abd 0dbc 94bd 6205 693d
00000120: 3187 de3c 3c44 a33d f937 533d 852b 0cbd
00000130: 6270 b5bc 9b4a a8bc 8eb5 11bd 3d14 853c
00000140: 4f72 eabc 3892 b33c a55d 523d e53a 583c
00000150: 803b cbba 5a64 39bd 531b f4bc bd83 1b3c
00000160: 3ab7 d0bc aabb 09bd f2dd e5bd e057 dcbb
00000170: 6b0e 48bd 5688 debc ee9f 3e3e 4a6c 0c3e
00000180: b493 173d a463 633d 1082 cc3d a2bd a1bd
00000190: 82f7 30be 0701 16bd 7848 393d d18e 0f3d
000001a0: b090 243e 55b5 7d3d 3a82 293e fedd 573d
000001b0: 55d6 563e 2c96 8dbc 6788 af3e 2fc6 083d
000001c0: 0bd3 5c3e b98e 073e 7614 6abf af5f 3c3d
000001d0: 35da 7dbf edea fd3d 57f8 fabc 6b66 2a3c
000001e0: 1db3 5cbe c9fc fe3c 5238 cbbd 846c 5e3d
000001f0: 55eb 0d3d 7cd4 b63b ad64 8b3b 8173 d73d
00000200: 7037 cbbb 96c8 773d 4679 493b f44a cf3d
00000210: 9e14 60bd 98bf aabd b31b fc3d 9757 f33d
00000220: d968 2b3e 00ed 653d 8c7e d7bc e2cd 9d3c
00000230: 590c 11bd bcc4 50bd e061 02be a983 3abd
00000240: 5644 1fbb 0a43 0d3e 4acb 063e 2338 543e
00000250: bcec ad3d afe0 e53e 4240 8fbd 9bf7 2e3d
00000260: 299a 7fbd 4081 d83c 0b84 0e3d 9743 583e
00000270: d678 393d 7c1b e0bd 236a 013e 2001 84bd
00000280: 7cd7 51bc 75fb e13d 1f4d 0cbe 05f7 283d
00000290: 5cfd 6abd 354d 663d 7062 a23d 7187 bb3c
000002a0: d237 b03e 8905 ddbc fce9 ff3e 1191 b8bd
000002b0: d458 1abd 4177 9b3d 7574 6e3b 596c 76bd
000002c0: fa53 ec3d b5ad 23bd db83 c33a 128a b63e
000002d0: d4c0 823e a772 183a 3e4b 2f3e 4a79 163e
000002e0: a09f b83d c370 883e 0e40 243e aab7 8bbd
000002f0: e144 ac3e c2f9 dbbe 13c0 aebd 9b01 3a3e
00000300: fea2 373d 2716 ce3b 4f3e ae3d e555 d93d
00000310: 93bf 7bbd bb72 ae3d 44f6 43bd 3429 dfbe
00000320: 58df c6bb 838b 043e fc54 6bbd 413d 563e
00000330: 97ff 1d3d b183 5f3e 00f5 2fbd a01b a2bc
00000340: eca8 183e a3ce 69bb 9fe1 6fbd 00c0 a3bb
00000350: f2fc e43c ba53 61bc 3731 893e 3f1d 073d
00000360: 7cdc 31bd b483 af3c 132c 923d 3658 60bd
00000370: 6728 993b 0545 183a 183d 5bbd 34bd ab3d
00000380: 7d22 8e3d e39c cabd d324 3dbb a691 52be
00000390: d18f 843d f912 91bc 86e9 6d3d 4543 553e
000003a0: c286 6fbd f777 5b3e 74f6 163e 58c6 2c3d
000003b0: c159 a63d 779a 84be e9de d9bd 5f66 70be
000003c0: 591e e7bb aabb 92bd 60f8 b4bd 7b13 853c
000003d0: 7124 1dbd 9de8 423d 2605 a43c 79c2 103e
000003e0: 6805 a03b 73a4 e4bb 9398 c83d 86bd 323b
000003f0: c12d 16bd 2e10 673c abab e03d fdca 563e
-0.17216106 0.04709382 -0.16116852 -0.20727655 -0.038361497 0.00794411 -0.17476308 0.074365124
-0.14929295 0.10907448 0.093621664 0.254987 -0.02443014 0.21646057 0.09061432 0.1960232
-0.048497386 0.30733728 -0.06395219 -0.049586266 0.037813056 0.16482449 0.14168714 0.18881932
0.009666712 -0.04244004 0.031328503 -0.17516248 0.12566927 0.27198586 0.059552953 0.12023571
0.20576026 0.105020426 -0.039932482 0.27000308 0.21509032 -0.05015016 0.20071459 0.0018550411
0.165439 0.050601397 0.09438181 0.058284774 -0.17042671 0.14249974 -0.24755912 0.16687256
0.09155519 0.05379061 -0.04228516 -0.07962212 0.23068409 -0.31988174 -0.0096182665 0.04595374
-0.089481 0.037308905 0.16946419 -0.06837896 0.11361876 -0.16762334 0.1329583 0.058057092
0.12163136 0.023101073 0.09235451 0.23488635 0.2053423 -0.067445055 -0.0726243 0.0568899
0.027164074 0.07971999 0.05156705 -0.03422119 -0.022148315 -0.020543387 -0.035573535 0.016245002
-0.02861896 0.021920308 0.051358838 0.013197635 -0.0015505403 -0.04526172 -0.029798185 0.009491858
-0.025477994 -0.033626236 -0.11223973 -0.0067243427 -0.048841875 -0.02716462 0.18615696 0.13713184
0.037006095 0.055514947 0.09985745 -0.07897498 -0.17281917 -0.036622074 0.045235127 0.03504831
0.16070819 0.06194051 0.16553584 0.052701943 0.20980199 -0.017283522 0.34283754 0.033392128
0.21564882 0.13238038 -0.9143747 0.04598969 -0.9916108 0.12398324 -0.030635996 0.010400395
-0.21552701 0.031126397 -0.099228516 0.054302707 0.03464826 0.0055795293 0.004253945 0.105200775
-0.006201677 0.060494028 0.003074245 0.10121718 -0.054707162 -0.08337325 0.12309971 0.11881941
0.16739215 0.056134224 -0.02630546 0.019263212 -0.035412166 -0.05096887 -0.12732649 -0.045535717
-0.0024302206 0.13795105 0.13163486 0.2072454 0.08492419 0.44897982 -0.06994678 0.042716604
-0.062402878 0.026428819 0.034793895 0.21119533 0.045281254 -0.10942742 0.12638144 -0.06445527
-0.012807723 0.1103429 -0.13701294 0.0412512 -0.05737053 0.056225974 0.07928932 0.022891732
0.34417588 -0.026980178 0.49983203 -0.09012044 -0.03768237 0.07591105 0.0036385332 -0.060161922
0.11539455 -0.03996058 0.0014916615 0.35652214 0.2553774 0.00058154244 0.17118546 0.14694706
0.09014821 0.2664853 0.1604006 -0.068221405 0.336463 -0.42963988 -0.08532729 0.18164675
0.044833176 0.006289262 0.08507978 0.10612086 -0.061461996 0.08517977 -0.04784228 -0.43586123
-0.006069105 0.12943844 -0.057454094 0.20921804 0.038573828 0.2182758 -0.04295826 -0.019788563
0.14908189 -0.0035676144 -0.05856478 -0.0049972534 0.027952645 -0.013752872 0.2679536 0.032986876
-0.04342316 0.021425106 0.07137313 -0.054771625 0.004674006 0.00058086246 -0.05352506 0.08385697
0.06940172 -0.09893205 -0.002886106 -0.20563373 0.06472743 -0.017709242 0.058084033 0.20826443
-0.058478124 0.21432482 0.14742452 0.042181343 0.08122588 -0.25899097 -0.1063822 -0.23476551
-0.0070531783 -0.071647 -0.08836436 0.01624464 -0.03836483 0.04758512 0.020021986 0.14136685
0.004883457 -0.0069776117 0.09794726 0.002727361 -0.036664728 0.014102979 0.10970243 0.20975871

tran_conv2.bias f4 [64]
00000000: 853a 35bc cf85 29bd 40aa 6dbc 2e5a debc
00000010: 1cf4 1dbc 30ac 19bc 1016 333c aaff 1c3d
00000020: d4be 90bc e884 9abb 3d66 84bb 4304 583c
00000030: 89b7 2bbc e66d 9cbc bb77 993d 3bd2 9b3b
00000040: 266e 433d e91f de3c 9f62 04be 5692 963c
00000050: 3250 f23c 01ad d5bc 9492 a5bc 484b 0abe
00000060: 3200 e1bc 611d c03c 9c3b 02bd 59e2 8b3c
00000070: 9ec7 1f3d 0a32 453d 977e cf3a 6c83 1a3d
00000080: 0b16 02bd 48be 5bbd 2faf 103d b1f3 4bbd
00000090: c29e fb3c 8920 46bd 0bed a0bc 55ab 023d
000000a0: 846f 893d b7f7 753c 9929 38bd 4cc8 6a3d
000000b0: f98c a23c a606 313d c346 1ebd da4e b1bb
000000c0: 97e4 aabb 35d0 ab3b e7b8 693d 8175 683d
000000d0: 43cf 4bbd 0393 44bd 02cf 3ebd f4b3 393d
000000e0: 7e3f 8c3d db88 5a3d 95e6 d43b c139 75bc
000000f0: fc45 2fbc ac18 a5bc d7d6 0abd aa95 75bc
-0.011061315 -0.041387375 -0.014505923 -0.02714261 -0.00964072 -0.009379432 0.010930553 0.038329758
-0.017669119 -0.0047155507 -0.004040508 0.01318461 -0.01048077 -0.019095372 0.0749354 0.004755286
0.047712468 0.027114825 -0.12928246 0.018380325 0.029579256 -0.026083471 -0.020211495 -0.1350528
-0.027465913 0.023451509 -0.03179513 0.017075704 0.03900873 0.048143424 0.0015830573 0.03772299
-0.031759303 -0.053648263 0.035323318 -0.04979295 0.03071535 -0.04837087 -0.01964428 0.031901676
0.06710723 0.015012673 -0.044961546 0.057319924 0.019842612 0.04321923 -0.038641702 -0.005411011
-0.0052152383 0.005243326 0.057061102 0.056752685 -0.049758207 -0.047991764 -0.046584137 0.045337632
0.06848048 0.05335317 0.006497214 -0.014967383 -0.010697838 -0.020153366 -0.033896293 -0.014989296

conv5.weight f4 [1, 64, 3, 3]
00000000: 2b24 303d 2cd0 d53c 3118 223d 6cd6 25bb
00000010: b93d 283d e1e0 953d d92d 593d f1d6 963d
00000020: 68a1 5f3d b410 64bd d4fd 8bbd 16d7 e9bc
00000030: b76e f9bc 1eeb 9dbb def0 82bd 3b82 263c
00000040: 605a 42bd 2d01 afbc da10 1cbd 5fb7 a2bc
00000050: 267b 7cbc 8f47 4bbd 3001 6cbd 302a 2dbc
00000060: 1132 8bbc 3a2c 03bd 333f 583c a7da 0bbc
00000070: fd5a 9dbd e36d fbbc b49a afbd d880 dfbd
00000080: 7b7e 63bd be45 aa3a 4745 1b3c 6f01 153d
00000090: 9820 30bd 44ea 9bbc 326c 263b 086f 143d
000000a0: 55fd 283d b8d9 62bc 378c 70bd 40be 78bd
000000b0: 6e67 4ebd 8cf3 b93c a613 853d f26f 1c3d
000000c0: 6d04 043d 3a50 cbba b0e7 903c ebae 613d
000000d0: 1cce 893d 55eb adbc 07b3 243d 8f3b 313d
000000e0: 4869 053d 63ce 303d 3e47 edba e0e7 debb
000000f0: 9a5d a03b cd18 d03c d567 8d3c b609 77bc
00000100: 97c2 66bd 8b64 523c 44a2 253c 498e 92bd
00000110: 5fa7 7ebd 2e19 e53c 0779 fc3b cea2 98bc
00000120: 913b ed3c 63e7 153d 404e 783c 1e51 913d
00000130: 3951 873d 0089 493d 6609 293c a76b 4a3d
00000140: 53dc 2a3c 1349 10bd 81e9 b5bc 1071 32bd
00000150: f60f a3bb 2dad 50bc 8cfc 883c 8737 91bc
00000160: 01b5 a9bb a1ec d0bc 574d 17bd af80 8c3c
00000170: a116 6cbc e3a1 95bc 072e 2bbd dd64 cbbc
00000180: 6695 1bbd b05c a2bc 9eb1 92ba 3c30 2c3c
00000190: fdc2 fa3b f0ce 01bb 3b7b 4fbd e2c0 2abd
000001a0: 2cfe 6ebd 1a7d 58bc 2fb3 b53c 175d 19bd
000001b0: 1937 ddbc f3fc 1fbd 0304 e23b e57e 7ebd
000001c0: 1e7f 3fbd 155c 67bd e4eb 573d eaca cc3d
000001d0: fd36 fe3c 251b ee3c faf5 703c dd75 41bb
000001e0: 2253 483d 960c e23c 4923 4c3d fb60 493d
000001f0: e754 833d 2d91 343d 2996 4dbd e843 da3c
00000200: a4d3 e6bc 2b43 3cbd 1168 6ebd f737 4cbc
00000210: 07b6 8abc 0167 2ebd 625b a93c b893 a0bc
00000220: 6690 443d 9fa0 46bc e533 3b3d f4fb 133d
00000230: 859b 04bc bd92 303d 2fdd 393d efed 5d3d
00000240: fa97 cfbc 04d4 6cbd f91d c8bc 0753 69bd
00000250: b517 0b3c 566e c6bc 37c3 18bd 432d 2a3c
00000260: aa9d 103c 41ec d93c 8734 1cbd 5111 92bc
00000270: 9d5a f539 40a7 bbbb 3239 24bd c2d3 043d
00000280: f30c 49bc 7080 b73c ff51 0c3e 2b6b d23d
00000290: c43a 4a3e 59a5 08bd 20f0 c9bd 44a4 313d
000002a0: a9cb 26be 61b3 47be 917b 783c 0a07 743d
000002b0: aaee 66bb f0d2 efbb bae4 f43c bc5f b0bc
000002c0: 8c13 acbd 0806 2d3d 17f7 93bc 4d12 663b
000002d0: 71e0 56bc 2844 80bd 31b8 9abd e992 cc3c
000002e0: 1ae8 2ebd 8c0c 463c f517 2fbd 8ff7 72bd
000002f0: 0e0d 9b3b a422 7fbc dd16 10bd 0c14 6fbc
00000300: 0151 a8bc 5a3e 46bd 84ea 86bd 27e0 5d3c
00000310: bcfe 15bd 7c86 75bd 4c2b 433d d4dd 1dbd
00000320: e0a5 453a f3ac 4fbd 1443 92bd b87e 0bbd
00000330: 279f ad3c 5e4e 2fbd 1667 2cbd a7bb ae3d
00000340: 1396 86be 2e5a be3d bf8b c63d de71 94be
00000350: 864d f5bd 9ae1 b23e a41c 403e 2374 4fbd
00000360: 76a2 0e3d 3769 313d a1a0 ee3c 03de 813c
00000370: 3a37 493d a1f5 2f3d b2ae 5d3c 59de ab3c
00000380: a776 e03a cc67 333d c33e 3f3c 5e31 363d
00000390: 3421 b3bc 5f18 bc3c 51fb 09bb 0914 ec38
000003a0: 39bb 4abc 23c1 c7bb 60a5 13bd 51b5 8bbb
000003b0: da9a 9d3c 4b25 213d fe98 763b 1e53 6d3d
000003c0: 0f80 243c 41d1 c63c 800f d73c e356 0cbc
000003d0: af2f 54bd 7660 963c e101 18bb bb91 6fbd
000003e0: 58f2 09bd e9c3 1ebd c207 a5bc dac2 8fb9
000003f0: e4c2 74bd 36f3 a6bc c531 3bbd be6f 48bd
0.043003242 0.02610024 0.039573852 -0.0025304807 0.04107449 0.07318283 0.05302224 0.073652156
0.05459729 -0.05567999 -0.06835523 -0.028544944 -0.0304483 -0.004819288 -0.06393598 0.010162885
-0.04744947 -0.021362865 -0.03810201 -0.019862829 -0.01541022 -0.04962879 -0.05761832 -0.01056914
-0.016991647 -0.0320246 0.013198662 -0.0085360175 -0.0768337 -0.030692047 -0.08574429 -0.10913247
-0.055540543 0.0012990755 0.009476966 0.03637832 -0.042999834 -0.019032605 0.002539408 0.0362387
0.04125722 -0.0138458535 -0.05872747 -0.06072831 -0.050391607 0.02269914 0.06497888 0.038192697
0.032230783 -0.001551158 0.017688602 0.055098455 0.06728765 -0.02123038 0.040209796 0.04326969
0.032571107 0.043165576 -0.0018102897 -0.006802544 0.0048939707 0.025402451 0.017261425 -0.015077999
-0.05633792 0.012841354 0.010109488 -0.07156045 -0.062171336 0.027966108 0.0077048573 -0.018632319
0.028959068 0.03659762 0.015155375 0.0709555 0.06607289 0.04920292 0.010317182 0.04941907
0.010428506 -0.03522594 -0.02220607 -0.043564856 -0.004976268 -0.012736601 0.016721986 -0.017726673
-0.005179048 -0.025503458 -0.03693899 0.017151205 -0.014409692 -0.01826567 -0.041791942 -0.024828369
-0.037984274 -0.019819587 -0.001119185 0.010509547 0.007652639 -0.0019807182 -0.05065463 -0.041687854
-0.058347866 -0.01321342 0.022180168 -0.037442293 -0.027003812 -0.03905959 0.006897451 -0.062132735
-0.046752088 -0.0564843 0.052715197 0.0999964 0.03103208 0.029065678 0.014707083 -0.0029519715
0.048907407 0.027593892 0.049838338 0.049164753 0.06412678 0.044083763 -0.050192032 0.026643708
-0.02817709 -0.045962494 -0.058204714 -0.012464515 -0.0169325 -0.0425787 0.020673458 -0.019601688
0.04798927 -0.012123256 0.045703787 0.036128953 -0.008093719 0.04310869 0.045376953 0.05418199
-0.025341023 -0.05781938 -0.024428355 -0.056963947 0.008489539 -0.024222534 -0.037295546 0.010386768
0.008826653 0.026601912 -0.03813603 -0.017830523 0.00046797554 -0.005726725 -0.04009361 0.03242851
-0.012271154 0.022400111 0.13703154 0.10274347 0.1974898 -0.033360813 -0.09860253 0.043369547
-0.16288628 -0.19502021 0.015166179 0.059577025 -0.003523747 -0.007318847 0.029894222 -0.021530025
-0.08402166 0.04224208 -0.018062158 0.0035106123 -0.013115034 -0.06263 -0.07554663 0.024972396
-0.042701818 0.012087952 -0.042747457 -0.05931812 0.004731781 -0.015572224 -0.035178054 -0.014592182
-0.020546438 -0.048399307 -0.06587699 0.013542212 -0.036619887 -0.059942707 0.047648713 -0.03854163
0.0007539671 -0.050702047 -0.071417004 -0.034056395 0.021194054 -0.042799346 -0.042090498 0.085318856
-0.26286373 0.09294544 0.09694623 -0.28993124 -0.11977677 0.34937745 0.18760926 -0.050647866
0.034822904 0.04331323 0.029129328 0.015852934 0.049124934 0.04295886 0.01353042 0.020980047
0.0017125205 0.04380016 0.011672678 0.044480674 -0.021866418 0.02296084 -0.0021054337 0.00011257089
-0.012373739 -0.0060960217 -0.036046386 -0.004263558 0.019238878 0.039342206 0.0037627812 0.057940595
0.010040297 0.024269702 0.026252508 -0.008565637 -0.051803287 0.018356543 -0.002319448 -0.05848859
-0.033678383 -0.038761053 -0.0201453 -0.0002742026 -0.059756175 -0.020379644 -0.04570176 -0.04893469
